data/model_1.pth (torch, 59640 bytes, 13 tensors)

conv1.weight f4 [16, 1, 7, 7]
000000 46 ba 2f bd 2d a9 ee bd ec 69 1b 3c 43 35 32 3d
       -0.042902254 -0.116533615 0.009485703 0.043507826
000010 f0 3e c6 bd 34 12 4c bd 09 a5 9b bc ef 3e fb bd
       -0.09679973 -0.049822047 -0.018999593 -0.12267863
000020 95 a4 a9 bd 9e 9a 1a be 52 80 8a 3d bc 57 f6 bd
       -0.08283345 -0.15098044 0.067627564 -0.12028453
000030 03 69 03 3d 40 65 91 3d f3 17 32 be 93 ec 9a 3d
       0.03208257 0.0709939 -0.17391948 0.07564654
000040 0d c8 e3 bc bf 46 ab 3d dc 2d 39 be 9a c2 84 3d
       -0.027805353 0.08363103 -0.180839 0.0648243
000050 65 75 ef bd 2e b2 aa bd 7c 51 dd 3c fc df f7 bd
       -0.11692313 -0.08334766 0.027016394 -0.121032685
000060 6b e7 c1 bd 3d d1 a9 3c c7 d7 37 be 97 8d 6e 3c
       -0.094679676 0.020729655 -0.17953406 0.014560125
000070 d4 23 ec bd bf c2 e3 bd 22 75 37 be 71 db 00 be
       -0.11530271 -0.11121129 -0.17915776 -0.1258371
000080 7f be 48 be 0d c7 92 3b 2e 40 7f bd e1 b6 8f bd
       -0.19603918 0.004479295 -0.062317066 -0.07017303
000090 ba 05 0f 3d 16 6f 70 bb 2b 3a fa bb 00 a0 5d bd
       0.03491757 -0.0036687306 -0.0076363287 -0.054107666
0000a0 19 e3 a5 3d e0 0c a6 bd 5c 3b c3 bc de 6a d1 bd
       0.08099956 -0.081079245 -0.023832016 -0.102254614
0000b0 91 66 9c bc 65 e1 8b bd d9 2f 0f be 39 97 7e bd
       -0.019091876 -0.068301 -0.13983096 -0.062155936
0000c0 ca ed 54 bc 05 ee 13 bf 9e 68 93 be 5a 4f 86 bc
       -0.012996146 -0.57785064 -0.28790754 -0.01639526
0000d0 29 49 60 3e 03 d7 39 3e 65 da 24 3e 85 2d 9e bd
       0.21902908 0.18148427 0.16098936 -0.07723526
0000e0 02 d8 e4 be c4 bd 61 be 4e 9a 7a 3e 83 ce bf 3e
       -0.4469605 -0.22045046 0.24472925 0.37462243
0000f0 5a 6a b2 3e 8d 61 d9 3d 32 96 aa be fe f1 ca be
       0.34846765 0.106143095 -0.33317715 -0.3963775
000100 68 00 b9 be 15 0b 18 3d 56 7d 5e 3e d9 ae 02 3e
       -0.36133122 0.037119944 0.217275 0.12762012
000110 1b 95 93 bd cd 50 fe be bb 16 95 be cc e9 97 be
       -0.07206174 -0.4967102 -0.29118904 -0.2967056
000120 c3 59 9b be 25 22 9b bd d8 e5 98 be af b6 aa be
       -0.3034192 -0.07574872 -0.29862857 -0.33342502
000130 4d 67 b9 be 9c f6 bf bd ee 4a 1c be 98 ea a6 be
       -0.36211625 -0.09373209 -0.15262958 -0.32600856
000140 87 03 03 bf 00 7a a1 be de 1a d4 be 9a e8 bc bd
       -0.5117726 -0.3153839 -0.41426748 -0.09224053
000150 69 75 3f be 36 fd b8 bd 59 ac ca bd fa 24 aa be
       -0.18697132 -0.09032671 -0.09896154 -0.33231336
000160 b8 a9 28 be c4 4e b7 bc 4a e9 15 3e 7d f3 5f be
       -0.16470993 -0.022376426 0.14639774 -0.21870227
000170 20 a0 80 bc 21 a2 da 3c 58 b4 6b 3d 9c 67 90 3c
       -0.015701354 0.026688637 0.057545036 0.01762753
000180 0c a9 9f bc c5 fa 87 3d a9 1e 0b 3f dc 28 eb 3d
       -0.019489788 0.06639627 0.5434366 0.11482403
000190 bc 52 0d be c1 d3 87 be d2 9f 35 be 43 4f be be
       -0.13801092 -0.26528743 -0.17736748 -0.37169847
0001a0 7f 8f d2 bd 29 ea 36 3f 8e 82 1e bb 3e 08 fa 3d
       -0.10281276 0.7145105 -0.0024186703 0.12208603
0001b0 7a 36 02 bb f3 46 2e be 49 ea 45 be 8b c6 42 3e
       -0.0019868896 -0.17019252 -0.19327654 0.1902105
0001c0 f2 78 27 3f df 9d 94 3e 7b 42 d4 3d c2 75 8f 3e
       0.6541892 0.29026696 0.10364243 0.2801953
0001d0 17 bc 35 3e 07 5c bf 3d 9c 1a cc 3e 27 55 c9 3e
       0.17747532 0.09343725 0.3986405 0.3932278
0001e0 68 16 82 3e 05 60 d4 3d 3c 9f 87 3e 3e 46 30 3d
       0.2540772 0.10369877 0.26488674 0.04303574
0001f0 3a 5a 69 bd e4 3f 8b 3e 6d 2e 69 3e db 7d 85 bc
       -0.056970812 0.27197182 0.22771616 -0.016295364
000200 66 61 cf bb 31 58 eb 3d a0 ff b0 bd 1a 1a 38 be
       -0.0063287495 0.114914306 -0.086425066 -0.17978707
000210 16 22 e5 3c a1 a9 02 bd e0 d6 4e be 3c 94 27 3d
       0.027970355 -0.031900052 -0.20199156 0.04091285
000220 1a 6c 7c be ac 2f 6c be b9 b6 f9 bd b7 c8 aa 3c
       -0.24650612 -0.2306506 -0.12193055 0.020847661
000230 b3 8c a4 be 0d 07 81 be 51 13 1c 3d 1b 36 68 3c
       -0.32138595 -0.25200692 0.03810436 0.014173056
000240 e9 12 20 bd 33 f1 9d bc a4 7f 5a 3e ac f3 9b bf
       -0.039080534 -0.019280052 0.21337754 -1.2183738
000250 d5 69 ea be f9 70 81 be 97 10 53 be c8 d8 54 3e
       -0.45783868 -0.25281504 -0.20611797 0.2078582
000260 48 04 29 3f cb bc 38 3f 1d 76 4f be 43 75 78 be
       0.6602216 0.72163075 -0.202599 -0.24263482
000270 b6 fe e8 be c4 1f 25 bf 8e da 41 bf 64 0d d9 be
       -0.4550683 -0.64501595 -0.75724113 -0.4239303
000280 88 f6 84 bd 52 96 3c 3e bf 92 55 3e 6c 78 db bb
       -0.064923346 0.18416718 0.2085676 -0.006697705
000290 99 75 4b be 1e 98 bd be 1f 3e da be 49 2f 04 bf
       -0.19869079 -0.3703012 -0.4262552 -0.5163465
0002a0 f9 40 1c bd f2 20 62 3d af 72 d4 bd 5f e2 8e bd
       -0.0381479 0.0552072 -0.10373437 -0.069767706
0002b0 e8 7d c0 bd 31 4e 7a be 4b 3f d6 be 34 fd 8a 3d
       -0.09399015 -0.2444389 -0.41845164 0.06786576
0002c0 19 09 95 bd 87 48 39 bd 03 55 da 3d 1e e0 51 3e
       -0.07277126 -0.045235183 0.10660746 0.2049565
0002d0 c4 a4 b7 3d e7 04 86 be 7c ab d3 38 22 3a b4 bc
       0.089669734 -0.26175615 0.000100932055 -0.022000376
0002e0 4f 06 b4 3c cc 41 83 3e ac f7 d5 3e 2b 63 86 3d
       0.021975664 0.25636137 0.4179052 0.065618835
0002f0 90 68 ef 3d 13 0f 52 3d 93 5c 68 3e 8f 44 18 3e
       0.116898656 0.051283907 0.22691564 0.14869903
000300 a8 67 6c 3c 7f 08 32 3d 5d 80 51 3d af 73 40 3e
       0.01442901 0.043465134 0.051147807 0.1879413
000310 24 47 50 be 85 79 0e 3e a6 6a b4 3e 69 d0 93 3e
       -0.20339638 0.13913544 0.35237616 0.28869942
000320 cd b1 a7 bd 4b 8c bb be 79 17 17 bf df 52 64 be
       -0.0818821 -0.36630473 -0.5902019 -0.22297238
000330 5f 87 ab bd ae 50 ba 3d 00 3e 84 3e 89 1c da 3e
       -0.08375429 0.0909742 0.25828552 0.42599896
000340 b7 56 ff bd b7 d0 1e bf ce 5a 26 be f6 b6 a3 bd
       -0.124677114 -0.62037224 -0.16245577 -0.079938814
000350 66 8f cf bd 9e b4 03 3f 8c 4b 14 3f 59 73 19 3e
       -0.10134773 0.51447475 0.57927775 0.14985408
000360 31 81 cd be 90 c1 31 be 84 09 9a be 65 ca 7c be
       -0.40137628 -0.17358994 -0.30085385 -0.24686582
000370 e2 c6 45 3d d9 d5 cf 3e 65 ff 05 3e 91 8d 54 3e
       0.048285373 0.4059284 0.13085707 0.20757128
000380 c5 68 ef bd 11 2b 3a be c9 b9 a4 be c8 08 1e be
       -0.11689905 -0.18180491 -0.32172993 -0.15433037
000390 59 d3 6c 3e e2 6f 32 3e 9a 8d 77 3e 78 9c ba 3c
       0.23127498 0.17425492 0.2417511 0.022779688
0003a0 77 52 e4 bd 5e ae 13 bb 15 d2 8b be 40 e5 81 be
       -0.111485414 -0.002253435 -0.27308717 -0.25370216
0003b0 7d c6 27 be 2c 03 86 3e 60 09 b2 3d d1 38 71 3e
       -0.16384311 0.26174295 0.086931944 0.2355683
0003c0 0e a9 33 3e a2 09 26 be a6 9c 9e be dc 1b df bd
       0.17544958 -0.16214612 -0.30978888 -0.10893986
0003d0 96 27 86 3d 47 a6 30 bf 2f 7d ea be 54 bb cc be
       0.06550519 -0.6900372 -0.45798633 -0.3998667
0003e0 18 f6 e8 be 51 ef 4f bc 20 d1 41 3e b3 44 dc 3e
       -0.45500255 -0.012691335 0.18927431 0.43021163
0003f0 b5 5a bc be 8f cc de be 55 89 16 bf 52 1a bc be
       -0.36787954 -0.4351544 -0.588033 -0.3673883

conv1.bias f4 [16]
000000 1e b3 4b be b8 6c 14 be c9 ce 59 be ef 54 ad be
       -0.19892547 -0.14494598 -0.21270289 -0.33853862
000010 9f a6 34 bd ce 25 1a 3e 6c f7 e2 be 54 18 d0 3b
       -0.044104215 0.15053484 -0.44329393 0.0063505564
000020 fd 45 4d be 5b 4a 06 3f c0 58 85 be af 17 49 3e
       -0.2004623 0.5245721 -0.26044273 0.19637941
000030 ba ca 8a be e0 0a 10 3f d1 05 f2 bc 38 8b ce 3c
       -0.27107793 0.56266594 -0.02954379 0.025212869

conv2.weight f4 [32, 16, 5, 5]
000000 48 ed 62 be 59 66 3d bd 82 b3 3b 3e f9 7e 84 3e
       -0.22160828 -0.046240184 0.18330196 0.25878122
000010 83 bb 65 be 6d 1a 87 bd 7f b5 47 be 5f 06 87 3e
       -0.22434811 -0.06596837 -0.19502829 0.26372048
000020 be e6 69 3e f1 a8 4c be 88 e2 a6 be 9c a3 04 bf
       0.22841927 -0.19986321 -0.32594705 -0.5181215
000030 5e c8 0c bd e7 55 3b be 1a 72 88 be 27 97 92 be
       -0.034370773 -0.18294488 -0.26649553 -0.28630945
000040 04 91 bc be 3b 3f 4d bc 87 c0 83 bb 09 59 74 be
       -0.36829388 -0.012527282 -0.004020754 -0.23862089
000050 0a 15 96 bc 67 a8 42 be 67 1d e3 3e 95 3e d7 3e
       -0.01832058 -0.19009553 0.4435837 0.42039934
000060 db 34 e8 3e f7 93 57 3e 57 b6 55 3d 73 d6 b3 bc
       0.45352826 0.21052538 0.052175846 -0.021952843
000070 ab 57 5e 3d 91 f6 4d 3d 8a 49 8e be d9 5b bf 3b
       0.054282825 0.050283972 -0.2779048 0.0058398065
000080 8f fe 15 be d1 9a a3 bc 8d e2 14 3e 56 68 95 3d
       -0.14647888 -0.019971283 0.14539547 0.07295291
000090 0f 85 1c 3e c1 7e 18 3d 50 aa 58 3e ff e2 ab 3d
       0.15285133 0.037230257 0.21158719 0.083929054
0000a0 9e 86 b7 3d f2 05 d5 3c 4f dd ff 3d bb 5b 57 3e
       0.08961223 0.026003812 0.12493383 0.21031086
0000b0 b0 03 16 be 30 d4 82 3d 27 aa 0e 3e 87 19 c5 3b
       -0.14649844 0.06388128 0.13932095 0.006015006
0000c0 5f d1 19 3d 7c c0 81 be b1 16 b8 be 18 eb ba 3d
       0.037553187 -0.25342166 -0.35954812 0.09126872
0000d0 b2 7a 7d 3e 39 98 00 bd 24 40 fd be 9c c3 83 be
       0.24753836 -0.03139517 -0.49462998 -0.25735176
0000e0 a9 cc f6 bd d9 b4 96 3c 21 d9 1c 3b 6e 7b e5 be
       -0.120507546 0.018396782 0.002393313 -0.44820732
0000f0 b1 79 9a be f1 6b 75 be 8a 7a 8f bd d4 d5 90 bd
       -0.30170968 -0.23966958 -0.07005794 -0.070720345
000100 fe ec b1 be 0c 79 67 be c3 c4 b4 be 10 10 28 be
       -0.34751123 -0.2260477 -0.35306367 -0.16412377
000110 30 53 fd bd 4d 6e b1 be a0 8d 31 3e 27 35 48 be
       -0.123693824 -0.34654465 0.17339182 -0.19551526
000120 50 c9 13 3e ac b3 28 3e 03 9a 1f 3e 82 27 c2 be
       0.14432263 0.1647479 0.15586095 -0.37920767
000130 19 f5 58 be 63 d5 9f 3d 5d d3 84 3e 60 9b 91 3b
       -0.21187247 0.07804372 0.25942507 0.004443571
000140 4a 61 c7 be a3 c3 42 be aa a7 6c 3e 83 95 bc 3c
       -0.38941413 -0.19019942 0.23110834 0.023020511
000150 b6 5d 1b bc fc 58 40 bf 56 fb 06 bf bb ad 8a bd
       -0.009482792 -0.7513578 -0.5272726 -0.06771418
000160 e3 b0 cb 3c 5e 8a 18 be c9 78 47 be 86 e5 db be
       0.02486462 -0.14896533 -0.1947967 -0.4294855
000170 8e a9 02 be b2 46 f3 bc e1 0b 5d 3e fe ed 93 3e
       -0.12759992 -0.029696796 0.21586563 0.2889251
000180 2b ce 0f 3e 2e de 95 3e 61 3a 95 3e 15 3a 26 3e
       0.1404349 0.29271072 0.29146102 0.16233094
000190 06 e1 51 be 40 a1 b9 be 01 05 cf be 60 94 27 bf
       -0.20495996 -0.36255836 -0.40433505 -0.6546078
0001a0 16 98 5e bf 6f b4 7e be 78 e3 07 be aa f4 20 be
       -0.86950815 -0.24873517 -0.13270366 -0.15718332
0001b0 3f 16 46 be 52 e2 4c bf 68 91 ee bd 9a 3c a4 3d
       -0.19344424 -0.8003284 -0.11648828 0.08019371
0001c0 a5 da c7 3c 98 a2 74 be 38 e1 ce be e6 6d 21 be
       0.02439625 -0.2389015 -0.40406203 -0.15764579
0001d0 e0 f5 40 be 65 c9 8d be 78 c9 9e be f9 bc 5e bf
       -0.18843794 -0.27692714 -0.31013083 -0.870071
0001e0 66 01 e2 3d ac fa 89 bd 4f 5f cb be 3f 71 0a bf
       0.11035423 -0.06737265 -0.39721152 -0.5407905
0001f0 e3 04 15 bf 61 8a 15 be 4c 42 9c be b1 e4 70 be
       -0.5821058 -0.14603569 -0.3051933 -0.23524739
000200 c1 64 43 bd d7 e3 dc 3e f1 5d 85 be 5a 8e b1 be
       -0.04770351 0.43142578 -0.26048234 -0.34678918
000210 07 a9 06 be 21 a5 37 3e 3f 02 cd 3e 89 52 f1 be
       -0.13150416 0.17934085 0.40040776 -0.47133282
000220 f2 c7 cd be b6 2d 89 be 04 8d 12 bb 23 ce 29 3e
       -0.4019161 -0.26792687 -0.0022361884 0.16582541
000230 24 38 88 3d 77 ff 98 3e 65 a7 7f 3d 23 dd 37 3d
       0.06651333 0.29882404 0.0624155 0.044888627
000240 ea a1 00 3e a6 98 ce 3e 40 2d b3 3e 0b 57 df 3e
       0.12561765 0.40350837 0.3499546 0.43621096
000250 07 90 36 bd 03 b7 5d bc e3 8a 4f 3e b6 18 75 be
       -0.04457095 -0.013532403 0.20267825 -0.23935208
000260 a4 c1 96 be 61 56 44 3d d6 8f b3 3e d6 52 1f bf
       -0.2944461 0.04793394 0.35070676 -0.6223577
000270 b5 66 8f bf c3 0a 2d bf 63 46 4d be 99 9d 90 3e
       -1.1203219 -0.67594546 -0.20046382 0.28245237
000280 c5 34 32 bf 56 77 8c bf d7 e3 e3 be 83 ba 45 3e
       -0.6961177 -1.0973918 -0.44509766 0.1930943
000290 68 5d fd 3e 18 43 c3 be 30 d7 06 bf 22 b2 14 3e
       0.49485326 -0.38137126 -0.526721 0.14521077
0002a0 d1 ec b7 3e f4 cb e6 3e fb 32 01 be c3 38 e8 bd
       0.35922864 0.4507748 -0.12617104 -0.113389514
0002b0 c6 6b 1e 3e bf ae 68 3e 3d a2 80 3e 7a ff 21 3c
       0.154708 0.2272291 0.25123778 0.0098875705
0002c0 eb 88 95 3b aa ee 47 3e 20 ac 8f 3c 11 4e 19 bf
       0.004563441 0.19524637 0.01753813 -0.59884745
0002d0 8e ca 1b be 6e 27 81 3e c9 f8 0d 3f 97 a8 89 3d
       -0.15213987 0.25225395 0.5545774 0.06721609
0002e0 df 31 92 be 20 21 5f 3d bb 41 e2 3e 58 a2 b8 3e
       -0.28553674 0.05447495 0.44190773 0.36061358
0002f0 e1 c5 69 3e fa 7b 0c bf 2b f1 4d 3e 95 6f cc 3e
       0.22829391 -0.54876673 0.2011153 0.3992888
000300 7e ce e2 3e b2 8a e2 3b 2b bd 5b bf 26 7d 5b 3d
       0.44298166 0.0069135064 -0.8583552 0.053586148
000310 04 60 de 3e 0f 65 64 3e 86 80 cd 3d af b7 2a bf
       0.4343263 0.22304176 0.100342795 -0.6668653
000320 2f 58 37 bd 41 5b 77 be 08 23 bd 3e 7d 00 79 3e
       -0.044761833 -0.24155904 0.3694079 0.24316593
000330 05 ff 2e be 8b ef af bd e4 27 dc bd 98 61 b6 3e
       -0.1708947 -0.08590611 -0.10749796 0.35621333
000340 9f 96 83 3e f4 71 90 be 6c 49 a6 be a4 46 fd be
       0.25700852 -0.2821194 -0.3247789 -0.49467957
000350 ff 8c 24 bd e6 51 a0 bd c7 9c ae be 18 7c 90 be
       -0.040173527 -0.07828121 -0.34103987 -0.28219676
000360 6e 90 f7 be bb 65 de bc d5 69 3b 3d f9 47 bd be
       -0.4835238 -0.027148118 0.045755226 -0.36968973
000370 f8 f1 92 bd 33 32 ac bd ed 88 f3 3e d2 fc 03 3f
       -0.07175058 -0.08408012 0.47565404 0.5155765
000380 9e 21 e7 3e 7c 65 59 3d c7 63 e9 3e 12 3d a4 3e
       0.45142835 0.0530753 0.45583937 0.32077843
000390 67 0a 50 3e e3 5c f2 3e 81 d6 58 be 76 3d 60 3e
       0.20316468 0.47336492 -0.21175577 0.21898445
0003a0 ba 4f 98 ba d8 3b 17 bd 7d c8 39 be c4 db db bd
       -0.001162044 -0.036922306 -0.18142886 -0.10735276
0003b0 fd 9d b6 3d 8c fc 2b 3d da 36 55 be 6f 0d e5 be
       0.089168526 0.041988894 -0.20821705 -0.44736812
0003c0 86 d2 bd bd 2e f0 4d 3e 1f 30 2f 3e 41 a7 a9 bd
       -0.0926867 0.20111153 0.171082 -0.08283854
0003d0 93 12 ad be b9 75 3f be e2 c0 3c be 46 d5 00 be
       -0.33803234 -0.18697251 -0.18432954 -0.12581357
0003e0 f1 43 b9 3d a8 b8 88 3e d3 7c 16 3c f0 44 81 be
       0.09046162 0.26703382 0.009185034 -0.25247908
0003f0 ec 35 af be 0c ff 79 be 3a 70 0f 3e a9 a9 8b bd
       -0.34220827 -0.24413699 0.14007655 -0.068194695

conv2.bias f4 [32]
000000 c2 e8 60 3d a1 43 02 bc 65 40 8e 3c c5 a6 8a 3c
       0.054909475 -0.007950694 0.01736469 0.016925225
000010 a3 fa 8b bd b0 b0 64 3e f9 16 16 3e 68 e2 f8 3d
       -0.068349145 0.22333026 0.14657201 0.121525586
000020 f2 b7 11 be 24 c6 34 3d 27 b6 4a 3d f7 4e 0f be
       -0.14230326 0.044134274 0.04949012 -0.13994966
000030 e8 32 5f 3d fe b0 89 3d 86 cf 61 bc c4 2b 1f 3c
       0.054491907 0.06723212 -0.013782388 0.009715024
000040 b8 19 40 3e a7 8e af 3e fa 09 3b bb fa 81 9b 3b
       0.18759811 0.34288523 -0.0028539882 0.004745719
000050 82 5a 84 bd 62 9b 86 3d cc 2f 32 be ff 0a 6c 3e
       -0.064625755 0.06572606 -0.17401046 0.2305107
000060 92 05 1f 3e 6a 41 4a 3e 75 aa 30 3e 7a cb 8d 3e
       0.15529469 0.19751516 0.17252524 0.27694303
000070 53 9f a2 3e 03 10 3f 3e a5 04 9f 3c 94 97 64 3c
       0.3176218 0.18658452 0.019411394 0.013952155

norm1.weight f4 [16]
000000 1e 2f 73 3f 14 37 94 3f 51 03 6a 3f 28 fd 9d 3f
       0.9499377 1.1579309 0.9141131 1.2342882
000010 e1 5b 7c 3f a9 78 7c 3f 94 e3 ab 3f 21 2a 8c 3f
       0.98577696 0.9862161 1.3428826 1.0950357
000020 60 ff 6f 3f 59 d9 b1 3f 52 6b 7c 3f 37 0e 9c 3f
       0.93749046 1.3894454 0.9860126 1.2191838
000030 a6 f9 8a 3f a8 b2 4c 3f 85 5e a5 3f d2 25 22 3f
       1.0857437 0.7996011 1.291947 0.6333896

norm1.bias f4 [16]
000000 d2 c6 2d be da ad 03 3e a0 24 1c 3e 6c d0 62 3e
       -0.16970375 0.12859288 0.15248346 0.22149819
000010 db 1e 8a 3d 43 f6 62 3e 48 9e ef 3e 55 f3 55 3d
       0.067441665 0.22164254 0.46800447 0.052234013
000020 a6 25 b5 be 50 a7 b7 3e 2e 4d cb 3d 1d fc 8c bd
       -0.35380286 0.35869837 0.0992683 -0.06884024
000030 53 ac 1a 3e e9 c6 c4 3e 3c 3c 25 bd 8a 53 8d 3e
       0.15104799 0.38433006 -0.040340647 0.27602798

norm1.running_mean f4 [16]
000000 04 00 00 00 b7 d0 93 3b dd 53 ac 3e 46 a2 11 3d
       6e-45 0.0045109647 0.33657733 0.035555147
000010 1e 16 b6 3d 38 89 0a 3e 14 32 c2 3d 61 a1 bc 3c
       0.08890937 0.13528907 0.09482208 0.02302617
000020 04 00 00 00 8e 5f 17 3f f6 52 ef 3d 0c 75 d9 3e
       6e-45 0.5913018 0.116857454 0.42472112
000030 07 00 00 00 ea 15 d1 3f 3e b2 c7 3c 18 0e 85 3f
       1e-44 1.6334813 0.024376985 1.0394926

norm1.running_var f4 [16]
000000 56 00 00 00 fe cb 23 3b f8 44 ef 3e cc 35 c2 3c
       1.2e-43 0.0024993415 0.46732306 0.023707293
000010 70 c7 ad 3d b9 65 5a 3d 9a 24 a9 3d 3d 47 95 3c
       0.08485305 0.053319667 0.08258934 0.018222446
000020 56 00 00 00 1e 9a d4 3e 72 78 f1 3d 4e 2b e1 3e
       1.2e-43 0.41523832 0.11790551 0.4397835
000030 57 00 00 00 a0 38 e5 3f ea 02 8c 3c 94 b6 e4 3f
       1.22e-43 1.7907906 0.017091233 1.7868218

norm2.weight f4 [32]
000000 d6 32 41 40 9d 39 55 40 0c 62 81 40 f3 65 2b 40
       3.0187278 3.3316414 4.0432186 2.6780975
000010 aa 1d d3 3f a2 67 29 40 57 af d5 3f 5b b1 58 40
       1.6493428 2.6469502 1.6694134 3.385825
000020 2b 33 3d 40 72 5a ec 3f d7 7f f6 3f 96 a8 36 40
       2.956248 1.8465102 1.9257764 2.8540397
000030 57 75 3b 40 95 fb 1c 40 b6 36 db 3f e1 83 01 40
       2.9290369 2.4528553 1.7126071 2.0236742
000040 e3 2a d7 3f 01 3f 44 40 7e 0a 51 40 7b 3d e5 3f
       1.6809963 3.0663455 3.2662654 1.7909387
000050 22 4a e6 3f f7 c4 29 40 b1 78 39 40 95 b7 f4 3f
       1.7991374 2.6526468 2.8979914 1.9118525
000060 ee 70 d4 3f 4f 7c 45 40 61 b4 d8 3f 68 a8 6c 40
       1.6596963 3.0857122 1.6930047 3.6977787
000070 20 0b 03 40 60 b7 18 40 2e ae d7 3f 51 65 fd 3f
       2.047554 2.3861923 1.685003 1.9796544

norm2.bias f4 [32]
000000 34 60 1b 3f a6 d5 fd bc 33 5a d7 bd 0a 08 33 3e
       0.6069367 -0.030985665 -0.10515251 0.17483535
000010 66 98 63 be f6 66 da 3d c7 10 55 3d e8 88 f8 3d
       -0.22226104 0.106641695 0.052017953 0.12135488
000020 14 18 ed 3d 7e 65 52 be 50 8d 12 bf d2 f9 09 3e
       0.11576858 -0.20546529 -0.57246876 0.13474205
000030 ac d3 14 bd 7b c3 55 3e 72 35 a6 3d 4f 1c 7a be
       -0.03633468 0.20875351 0.08115663 -0.24424861
000040 6b d5 55 be e3 ef 5b 3e e7 ab 96 3c 60 6a 36 be
       -0.20882194 0.21478228 0.018392516 -0.17814016
000050 f9 77 e2 bd 08 45 21 be da 54 85 bd 5a 0d 67 3e
       -0.11058039 -0.1574899 -0.06510325 0.22563687
000060 40 49 3f be 10 51 02 be 25 48 ae 3d 4a bc b0 3e
       -0.18680286 -0.12726235 0.08509854 0.34518653
000070 85 76 33 3c fb 1a 99 be f3 d5 69 3b 2f 0d 25 be
       0.01095355 -0.29903397 0.0035680502 -0.1611831

norm2.running_mean f4 [32]
000000 44 8f c1 3f bc ed e3 3d 23 dd 38 3f 01 3a e9 3e
       1.5121846 0.111293286 0.7221243 0.45552066
000010 f4 60 0f 40 be 18 ec 3e 37 aa 03 40 57 0f 77 3f
       2.2402925 0.46112627 2.057264 0.9650778
000020 e4 a0 77 3f 64 56 1e 40 44 2c 4f 40 5d 5e da 3e
       0.96729875 2.4740229 3.2370768 0.42650118
000030 93 44 34 3e a8 a7 a4 3e 7d 55 1c 40 c8 cb 3e 40
       0.17604284 0.32159162 2.4427178 2.9811878
000040 aa d7 26 40 29 28 a7 3f c4 19 84 3f 41 14 3d 40
       2.606913 1.3059131 1.0320363 2.9543612
000050 40 e7 01 3f 3b 11 d4 3e cd 69 78 3e ba 6c d1 3f
       0.50743484 0.41419396 0.2425911 1.6361306
000060 32 2c 11 40 0a 7a 57 3f 88 06 02 40 42 51 19 40
       2.2683225 0.8417059 2.0316486 2.3955846
000070 fe 70 05 40 e7 71 3b 3f 1e 64 0a 40 20 5d f6 3f
       2.0850215 0.73220676 2.1623607 1.924717

norm2.running_var f4 [32]
000000 c0 6a 0d 41 a2 c0 3d 3f e8 af 97 40 d8 28 04 40
       8.838562 0.7412206 4.740223 2.064993
000010 d4 06 57 41 13 85 3c 40 b4 7b 23 41 ca 61 e7 40
       13.439167 2.9456222 10.217701 7.230687
000020 27 c7 23 41 d2 03 27 41 ee 5c 80 41 f9 59 6f 40
       10.236121 10.438433 16.045376 3.7398665
000030 13 af 6e 3f ce 71 aa 3f d8 d5 70 41 65 61 bd 41
       0.9323589 1.331598 15.052208 23.672556
000040 96 e3 61 41 a6 c7 15 41 9c 6c cd 40 00 2c ba 41
       14.118063 9.361242 6.419508 23.271484
000050 73 6e 18 40 32 24 f2 3f a7 53 cd 3f a5 d0 04 41
       2.3817413 1.8917296 1.6041154 8.300939
000060 74 ef 57 41 23 9a ce 40 f1 a9 19 41 24 57 82 41
       13.49596 6.4563155 9.60399 16.29255
000070 6b 5c 6c 41 9f d2 62 40 65 c0 3a 41 d4 5a 5c 41
       14.772563 3.5441053 11.671971 13.772175

map.weight f4 [2, 32]
000000 4f 6b a0 bf 5b d2 23 bf cf de e1 bf 75 6d 9d bf
       -1.2532748 -0.6399285 -1.7646121 -1.2299029
000010 c0 2d 05 3f 95 fb 7f bf b3 7d 01 3f f3 12 ce 3e
       0.52022934 -0.9999326 0.50582427 0.40248832
000020 37 bb e8 be aa 6a f9 3d 68 5d aa 3c 12 ad 91 3f
       -0.45455334 0.12178548 0.020796493 1.1380942
000030 94 25 bb be 7d fd 64 bf b8 05 af 3e 71 db 8c 3e
       -0.36552107 -0.8944929 0.3418405 0.2751117
000040 3c 53 e3 3e a0 ac 94 3f 23 b3 50 bd 0d d5 f2 3e
       0.4439944 1.1615181 -0.050952088 0.4742817
000050 f5 1a f6 3e e3 da a1 bf 52 c8 ad bf 53 da 77 3b
       0.48067442 -1.2644924 -1.3576758 0.003781934
000060 bc a1 bf 3e aa 0a 96 3f a9 33 30 3f e6 40 0d 3f
       0.3742808 1.1722004 0.6882883 0.5517715
000070 d7 2b 54 3f ed 6d 80 bf 28 2e 2b 3f 29 66 96 3e
       0.82879394 -1.0033547 0.66867304 0.29374817
000080 f7 1e 5b 3e ec e9 ba 3f 44 02 df bf e0 85 1c 3e
       0.21398531 1.4602637 -1.7422566 0.15285444
000090 b5 c4 26 bf 7c b6 11 3f 4a 89 32 bf 34 c9 ce 3f
       -0.651439 0.56919074 -0.69740736 1.6155152
0000a0 22 46 91 bf 55 d4 58 bf 9b 99 5f bf d4 37 ca 3e
       -1.1349528 -0.8469899 -0.8734376 0.39495718
0000b0 c1 59 a9 3f 34 14 7d 3f 04 cf 3c bf 71 7d 2f bf
       1.3230516 0.9885895 -0.7375338 -0.68550783
0000c0 46 07 26 bf 78 03 18 3f 75 6c cb 3f e2 ff 22 bf
       -0.6485485 0.5938029 1.5892473 -0.63671696
0000d0 e3 c5 40 bf 56 ca d9 bc 4e a2 44 be c5 61 62 bf
       -0.7530195 -0.02658574 -0.1920254 -0.88430434
0000e0 27 64 46 bf 50 7c 18 3f 97 7c 8e be 2f 3d cd 3f
       -0.7749657 0.59564686 -0.2782943 1.6034297
0000f0 fa 2b a5 bd 51 0c fd 3e 46 2c 09 bf 46 36 40 bf
       -0.080650285 0.4942346 -0.5358318 -0.75082815
