data/model_1281.pth (torch, 59640 bytes, 13 tensors)

conv1.weight f4 [16, 1, 7, 7]
0	0xbd2fba46	-0.042902254
1	0xbdeea92d	-0.116533615
2	0x3c1b69ec	0.009485703
3	0x3d323543	0.043507826
4	0xbdc63ef0	-0.09679973
5	0xbd4c1234	-0.049822047
6	0xbc9ba509	-0.018999593
7	0xbdfb3eef	-0.12267863
8	0xbda9a495	-0.08283345
9	0xbe1a9a9e	-0.15098044
10	0x3d8a8052	0.067627564
11	0xbdf657bc	-0.12028453
12	0x3d036903	0.03208257
13	0x3d916540	0.0709939
14	0xbe3217f3	-0.17391948
15	0x3d9aec93	0.07564654
16	0xbce3c80d	-0.027805353
17	0x3dab46bf	0.08363103
18	0xbe392ddc	-0.180839
19	0x3d84c29a	0.0648243
20	0xbdef7565	-0.11692313
21	0xbdaab22e	-0.08334766
22	0x3cdd517c	0.027016394
23	0xbdf7dffc	-0.121032685
24	0xbdc1e76b	-0.094679676
25	0x3ca9d13d	0.020729655
26	0xbe37d7c7	-0.17953406
27	0x3c6e8d97	0.014560125
28	0xbdec23d4	-0.11530271
29	0xbde3c2bf	-0.11121129
30	0xbe377522	-0.17915776
31	0xbe00db71	-0.1258371
32	0xbe48be7f	-0.19603918
33	0x3b92c70d	0.004479295
34	0xbd7f402e	-0.062317066
35	0xbd8fb6e1	-0.07017303
36	0x3d0f05ba	0.03491757
37	0xbb706f16	-0.0036687306
38	0xbbfa3a2b	-0.0076363287
39	0xbd5da000	-0.054107666
40	0x3da5e319	0.08099956
41	0xbda60ce0	-0.081079245
42	0xbcc33b5c	-0.023832016
43	0xbdd16ade	-0.102254614
44	0xbc9c6691	-0.019091876
45	0xbd8be165	-0.068301
46	0xbe0f2fd9	-0.13983096
47	0xbd7e9739	-0.062155936
48	0xbc54edca	-0.012996146
49	0xc202d415	-32.70711
50	0x4069c2a5	3.6525052
51	0x41676353	14.461749
52	0x40967a88	4.7024574
53	0x4119e1c4	9.617619
54	0x4014571a	2.3178163
55	0x40d49340	6.642975
56	0xc17fe6bc	-15.993832
57	0x40650588	3.5784626
58	0x4090c44e	4.523963
59	0x40205f8e	2.5058322
60	0x409dd5d3	4.9323516
61	0x40aa7fdb	5.3281074
62	0x406f5a55	3.7398884
63	0xc201bba1	-32.43323
64	0xbfb7411a	-1.4316742
65	0x40d86471	6.762261
66	0x40a279ba	5.077359
67	0x406e85ec	3.726924
68	0x40f13bd9	7.5385556
69	0x41216e48	10.089424
70	0xc1a45b4b	-20.544577
71	0xc170d363	-15.051608
72	0xbfd01202	-1.6255496
73	0x3fba2e57	1.4545392
74	0x40895065	4.291064
75	0x40a635df	5.194076
76	0xc0157a1f	-2.3355787
77	0xc18e5222	-17.790104
78	0xc218481a	-38.07041
79	0xc210e2c4	-36.22145
80	0xc101f446	-8.122137
81	0xc0d3f6eb	-6.6238914
82	0xc13d5d75	-11.835317
83	0xc16e7746	-14.9041195
84	0x4113d2f0	9.238998
85	0x4185f098	16.742477
86	0xc0e357b7	-7.1044574
87	0xc20db2dd	-35.42467
88	0xc1c5e87a	-24.738514
89	0xc194e8f4	-18.613747
90	0xc0b19da1	-5.550492
91	0xc0630b37	-3.5475595
92	0xc0d6bd39	-6.7105985
93	0x40b17414	5.5454197
94	0x40fcb4a7	7.8970523
95	0x3fec84c2	1.8478014
96	0x403a24ed	2.9085038
97	0x3e2fb129	0.17157425
98	0x413f98bf	11.974792
99	0x40adfb28	5.4369087
100	0xbfedb26a	-1.8570073
101	0xc164434b	-14.266429
102	0xc1b3a4ad	-22.455408
103	0xc125fd69	-10.374368
104	0xc0a1442e	-5.0395727
105	0x40a5420c	5.1643124
106	0x40b2d2a2	5.588212
107	0x4026a5c1	2.6038668
108	0xc0e54c35	-7.1655526
109	0xc1529a07	-13.162604
110	0xc0a75ddf	-5.230209
111	0x3f2a2634	0.66464543
112	0x41264488	10.391731
113	0x413756a3	11.458652
114	0x40b2a9f2	5.5832453
115	0xc03005d8	-2.7503567
116	0xc0b9bb65	-5.8041253
117	0x40b49286	5.642886
118	0x41963416	18.775433
119	0x4122e3ee	10.180647
120	0x403a63ad	2.9123337
121	0x40f7eb18	7.747448
122	0x415e6f17	13.902122
123	0x40faa1aa	7.8322344
124	0x402569c6	2.584581
125	0x41311355	11.06722
126	0x415c5bba	13.772394
127	0x403766d1	2.8656504
128	0x410b8a54	8.7212715
129	0x415c1bd3	13.756793
130	0x408b2ecd	4.349463
131	0xbfc41f0b	-1.5321974
132	0x4147630b	12.46168
133	0x40ef0374	7.4691715
134	0x3f60d01b	0.87817544
135	0xc0b97c45	-5.7964196
136	0xc034b2ec	-2.8234205
137	0x406f94b0	3.7434502
138	0x40a6de49	5.2146344
139	0x40dea375	6.9574533
140	0xc19427cb	-18.51943
141	0xc11d10b3	-9.816577
142	0xc16101c1	-14.062928
143	0xc15c7778	-13.779167
144	0xc1444b5f	-12.268401
145	0xc1371467	-11.442481
146	0xc12b9da3	-10.725986
147	0xc206698c	-33.603073
148	0xc1c63202	-24.774418
149	0xc25ce193	-55.220287
150	0xc24582f5	-49.377888
151	0x4091582e	4.542014
152	0x409db039	4.9277616
153	0x411d8e2e	9.847212
154	0xc177647a	-15.46203
155	0x40aa9720	5.330948
156	0x41169f4e	9.413893
157	0xbf70842a	-0.93951666
158	0xc23bab01	-46.916996
159	0xc20d7970	-35.36859
160	0xc195014e	-18.625637
161	0x3f8eef3e	1.1166761
162	0x411765fa	9.462397
163	0x3ff4302b	1.90772
164	0xc13736fd	-11.450925
165	0xc0adb15f	-5.4279017
166	0x4069a293	3.6505477
167	0xc22312e7	-40.76846
168	0xc112895e	-9.158537
169	0x3f928094	1.1445489
170	0x4098a064	4.769579
171	0x40a1413c	5.039213
172	0x40b2d260	5.5881805
173	0x3fb8b090	1.4428883
174	0xc1b9a650	-23.206207
175	0xc06745ba	-3.6136308
176	0x408ba365	4.3636956
177	0x4120659c	10.024807
178	0x404e2122	3.2207723
179	0x40cf7f4a	6.484288
180	0x4093e0bd	4.621184
181	0xc08f34d6	-4.4751997
182	0xc09aa750	-4.832924
183	0x4069ff32	3.656201
184	0x40efd108	7.4942665
185	0x40058d84	2.0867624
186	0x3fe1755a	1.7613938
187	0x40231a01	2.5484622
188	0x404eca60	3.231102
189	0x40df8b41	6.985749
190	0x41048b8c	8.284069
191	0x40fa6ff0	7.8261642
192	0x40a09329	5.017964
193	0x409dd5a4	4.932329
194	0x408d3bba	4.413541
195	0x407214d1	3.7825205
196	0xc15945fa	-13.579584
197	0x41306ca8	11.026527
198	0x41906bd0	18.052643
199	0xc09c8ba5	-4.8920465
200	0xc19f47c3	-19.91004
201	0xc1aa728f	-21.305937
202	0xc1524ef6	-13.144278
203	0xc10b6e93	-8.714496
204	0xbfcc2f11	-1.5951864
205	0x410fa548	8.977852
206	0x41844937	16.53575
207	0x4099c626	4.805438
208	0xc0dd0a0b	-6.907476
209	0xc17753b0	-15.4579315
210	0xc129bea4	-10.609043
211	0xc0841f20	-4.1287994
212	0x41331ac2	11.194033
213	0x41859427	16.69734
214	0x418fcec9	17.97597
215	0x3e8e3144	0.27771962
216	0xc181538f	-16.1658
217	0xc14ebb60	-12.920746
218	0xc0fa9485	-7.83063
219	0x404372ad	3.0538743
220	0x4105f437	8.372123
221	0x416cf47e	14.80969
222	0x4081429b	4.0393806
223	0xc13ef5eb	-11.935039
224	0xc0f97953	-7.79606
225	0xc1177123	-9.465121
226	0xc010e84c	-2.2641783
227	0x4133ebc0	11.245056
228	0x41a05644	20.042122
229	0x412a4617	10.642112
230	0xc08ded73	-4.4352355
231	0x405e8baf	3.4772756
232	0xc0fa9014	-7.8300877
233	0xc11af88f	-9.685683
234	0xc03b6000	-2.9277344
235	0x4101914e	8.097975
236	0x40de8ad5	6.9544473
237	0x3f91522c	1.1353202
238	0x40e18a13	7.048105
239	0x3f6e48c8	0.93079805
240	0xc101013b	-8.0628
241	0xc0f1add4	-7.5524693
242	0xc01186f1	-2.2738612
243	0x3ea031f5	0.31288114
244	0x411dea91	9.869767
245	0xc1ac6c93	-21.553015
246	0xc0d962b0	-6.793297
247	0xc2079386	-33.894066
248	0xc203d1d7	-32.95492
249	0xc1743280	-15.262329
250	0xc1827c1f	-16.310606
251	0xc1cc359f	-25.526182
252	0xc0a260e0	-5.0743256
253	0xc167e01f	-14.492217
254	0xbfc48193	-1.5352043
255	0x3f8ad10d	1.0845047

conv1.bias f4 [16]
0	0xbe4bb31e	-0.19892547
1	0xbf768a8d	-0.9630516
2	0xc1e4b2bd	-28.587275
3	0x4094f140	4.6544495
4	0xc11b689a	-9.7130375
5	0x41ae0cae	21.756191
6	0xc173e6f9	-15.24389
7	0x40dc4bed	6.8842683
8	0xbe4d45fd	-0.2004623
9	0x41b54dfa	22.663074
10	0xc0f840b0	-7.7578964
11	0x41e56ec2	28.679081
12	0xbe8acaba	-0.27107793
13	0x42ba697b	93.20602
14	0x408177eb	4.0458884
15	0x3e82542f	0.25454852

conv2.weight f4 [32, 16, 5, 5]
0	0xc0b36e06	-5.6071806
1	0xc0adcfe2	-5.4316263
2	0x3fbcb78f	1.4743518
3	0x3fc6601d	1.5498081
4	0xbd54619f	-0.05185091
5	0xc0ae6f66	-5.4510984
6	0xc0b293fe	-5.5805655
7	0x3fc70065	1.5546995
8	0x3fc27deb	1.5194677
9	0xbce0607a	-0.027389754
10	0xbe85341a	-0.26016313
11	0xbee7d07b	-0.45276245
12	0x40d64245	6.6955895
13	0x40d18389	6.5473065
14	0xbe9cfe58	-0.306628
15	0xbe619c17	-0.220322
16	0xbe9b1b24	-0.30294144
17	0x40d6f2cf	6.7171397
18	0x40d73b01	6.7259526
19	0xbe8f2412	-0.27957207
20	0xc01042c0	-2.254074
21	0xc01b3023	-2.424813
22	0x40a2b1ab	5.084188
23	0x40a1efa9	5.0605054
24	0xc05a8fa6	-3.4150176
25	0xc0cc0cb1	-6.3765492
26	0xc16c9814	-14.787128
27	0xc0b8de0b	-5.777105
28	0x3f40778e	0.75182426
29	0x414c15de	12.755339
30	0xc19094a4	-18.072578
31	0xc12402ae	-10.250654
32	0x413d16cc	11.818066
33	0x4174d595	15.302144
34	0x415a5127	13.644813
35	0xc23eacc5	-47.66872
36	0xc22d2eb6	-43.295616
37	0xc186eef6	-16.86668
38	0xc0a45fb4	-5.1366825
39	0x41ae32a0	21.77472
40	0xc277e42a	-61.972816
41	0xc21517be	-37.273186
42	0x41221ff3	10.1328
43	0x416c0cfd	14.753171
44	0x412edac5	10.928411
45	0xc16f4c57	-14.956138
46	0xc1e52445	-28.64271
47	0xc0d0d28e	-6.5257025
48	0x40ee498d	7.4464784
49	0x41861922	16.762272
50	0x4098a51b	4.7701545
51	0xc01ef121	-2.4834673
52	0x3da2a287	0.07941156
53	0xc178f45f	-15.559661
54	0xc14a01c9	-12.625436
55	0xc17eb8ac	-15.920086
56	0x3f83d63f	1.0299758
57	0x41363da0	11.390045
58	0x411bf72c	9.747845
59	0x40bbbe07	5.8669467
60	0xc0c284b8	-6.078701
61	0x4148361a	12.513208
62	0x40cde7f6	6.4345655
63	0x41790415	15.563497
64	0x3de3bce3	0.11120012
65	0x415bb20a	13.730967
66	0x40c86af0	6.263054
67	0xc0e8593d	-7.2608933
68	0x3ed107b3	0.40826187
69	0xc0664f2a	-3.5985818
70	0xbee7e9e9	-0.45295647
71	0x415cd492	13.801897
72	0x4094bfd9	4.648419
73	0xc1327a52	-11.154863
74	0x3d4257aa	0.047446884
75	0x415d01d8	13.81295
76	0xc1b88abf	-23.067747
77	0xc15366cf	-13.2126
78	0xc151d436	-13.114309
79	0xc1178c95	-9.471822
80	0xc125f5b9	-10.372491
81	0xc1c9c8c6	-25.223034
82	0xc1afb597	-21.963667
83	0xc0e18a0a	-7.0481005
84	0x417ec34f	15.922683
85	0xc104a592	-8.290422
86	0xc18e4ed7	-17.788496
87	0x413ae675	11.681264
88	0x40c5d7f4	6.1826115
89	0x4178b461	15.544038
90	0x404ae9cf	3.1705205
91	0x3f194f6f	0.5988683
92	0x4063f406	3.561769
93	0x408254ae	4.072837
94	0x41252441	10.321351
95	0x407fed86	3.9988723
96	0xc04f5390	-3.2394753
97	0xc1612433	-14.071338
98	0xc1052778	-8.322136
99	0x3f5c4b51	0.86052424
100	0xc015f5bb	-2.3431232
101	0xc1c8042b	-25.002035
102	0xc198be80	-19.093018
103	0xc1470151	-12.437821
104	0xc0fd62e1	-7.91832
105	0xc1c102ed	-24.126429
106	0xc22df31d	-43.487415
107	0xc1db120e	-27.383816
108	0xc1395f3b	-11.58575
109	0x407c0781	3.937958
110	0x3f50aff6	0.81518495
111	0xbea43ccc	-0.32077634
112	0xc1037a5f	-8.217376
113	0x3ff3d6ab	1.9049886
114	0x412dac44	10.854557
115	0xc0a83c2c	-5.257345
116	0xc06768fb	-3.6157825
117	0x41757693	15.341449
118	0x41b9f6ec	23.245567
119	0x416296c0	14.161804
120	0x40154293	2.3321884
121	0xbf1ea436	-0.61969316
122	0xbfaf5073	-1.3696426
123	0x410ba982	8.728884
124	0x401ad32c	2.419139
125	0xc1b10dd5	-22.131754
126	0xc144de56	-12.304281
127	0xbf00ff04	-0.5038912
128	0xc11f6992	-9.963274
129	0xc1a87a5c	-21.059746
130	0xc17120b4	-15.070484
131	0xc169e0b6	-14.617361
132	0x40a62d80	5.193054
133	0x40438662	3.055077
134	0xbecfadb0	-0.405622
135	0x3fc28a7f	1.5198516
136	0xc100e78b	-8.056529
137	0x419236ae	18.2767
138	0x4174ff7a	15.312372
139	0x40d4b60d	6.647223
140	0x411fd75f	9.990081
141	0xc102a9a6	-8.166418
142	0x40052df7	2.0809305
143	0x3fea1c7d	1.8289944
144	0x41221fd6	10.132772
145	0xc1a1311e	-20.148983
146	0xc1c35870	-24.418182
147	0xc0f3ee23	-7.6228194
148	0xc14bc1b6	-12.734793
149	0xc16c7e6d	-14.780866
150	0x410cef53	8.808429
151	0xc1218acb	-10.096385
152	0xc0f6a332	-7.7074213
153	0xc01a1331	-2.4074214
154	0xc0a68b33	-5.204492
155	0x40b9aa70	5.8020554
156	0xc0ab52b9	-5.353848
157	0xc13f65d1	-11.9623575
158	0xc09c27c4	-4.879854
159	0xc1073f22	-8.452913
160	0xc1157081	-9.339967
161	0xc0da8fc6	-6.8300505
162	0xc11d4d35	-9.831349
163	0x40485611	3.130253
164	0x3f925d2c	1.1434684
165	0xc0ba9551	-5.830727
166	0xc162bcd5	-14.171102
167	0xc01b4bf3	-2.4265106
168	0x412319da	10.193811
169	0x411cd3a1	9.801667
170	0x40f9e2f9	7.8089566
171	0xc0c45b3d	-6.1361375
172	0xc0b39e67	-5.613086
173	0x3ea3764f	0.319262
174	0x4125a9a4	10.353916
175	0xc120e800	-10.056641
176	0xc1f5f9cb	-30.74697
177	0xc1a93273	-21.149633
178	0xc0e5d703	-7.1824965
179	0x40dc5337	6.885158
180	0x40beb345	5.9593835
181	0xc0b1d1ee	-5.556876
182	0xc0fc4fe0	-7.8847504
183	0x41759fca	15.351511
184	0x411c7344	9.778141
185	0x413f85c1	11.970155
186	0x409d7111	4.920052
187	0x4150a596	13.040426
188	0xbf4c7432	-0.798648
189	0x4193af4f	18.4606
190	0x3f097b0a	0.5370337
191	0x419503ad	18.626795
192	0x40c979fa	6.2961397
193	0x40a6c64b	5.2117057
194	0x4104041b	8.251002
195	0x41168268	9.406837
196	0xbfa3e456	-1.2804058
197	0x407ab3aa	3.9172158
198	0x409c56e1	4.8856053
199	0xc13a8ae1	-11.658906
200	0xc1902f25	-18.02302
201	0xc191c319	-18.220263
202	0x40ad5429	5.4165235
203	0x40a94a59	5.2903256
204	0x3ed9f0d0	0.42566538
205	0xc19081b5	-18.063334
206	0xc190b057	-18.086103
207	0x40ace821	5.403336
208	0x40a9bb73	5.304132
209	0x3ea0fda2	0.31443506
210	0xbfc8259b	-1.5636476
211	0xbfddeca9	-1.7337848
212	0x41aca53c	21.58068
213	0x41ac576c	21.542686
214	0x401c95a0	2.4466324
215	0xbfc2ad2f	-1.5209101
216	0xbfdc7f8f	-1.7226428
217	0x41acc02a	21.59383
218	0x41ad53ec	21.665977
219	0x401ac2b8	2.4181347
220	0xc11bdf5a	-9.742029
221	0xc11c1134	-9.7542
222	0x416482a7	14.281898
223	0x416516af	14.318038
224	0xc113a411	-9.227555
225	0x3febb934	1.8415895
226	0xc09d3c7c	-4.9136333
227	0x3dd36c00	0.10323334
228	0xc1488c76	-12.534292
229	0xc05ca412	-3.447514
230	0xc18a5805	-17.292978
231	0xbfba472e	-1.4552972
232	0x4184a86f	16.582243
233	0xc027ecb2	-2.6238217
234	0x3f38ef56	0.722402
235	0xc0aaed8c	-5.3414974
236	0xbfb44042	-1.408211
237	0x41a98cf3	21.193823
238	0x4151dbb9	13.116143
239	0xc05b5480	-3.4270325
240	0xc202e55a	-32.723976
241	0xc0883888	-4.256901
242	0x4169ec54	14.620197
243	0x400f8a28	2.2428074
244	0x40fbd92a	7.8702593
245	0xc1bc9304	-23.571785
246	0xc0b41207	-5.6272006
247	0x4105570c	8.333752
248	0xbfb833ab	-1.4390768
249	0xc0b7f252	-5.74833
250	0x41866c56	16.802898
251	0x4072057c	3.7815847
252	0x40b80b01	5.7513433
253	0x4177aee0	15.480194
254	0x40973ddd	4.7263017
255	0x41b0495b	22.035818

conv2.bias f4 [32]
0	0xc1adaf5e	-21.710629
1	0xc11d3730	-9.8259735
2	0xc0b028ea	-5.5049944
3	0xc17fc273	-15.984973
4	0xc084e38f	-4.152778
5	0xc1137a3e	-9.217344
6	0xc09f843d	-4.9848924
7	0xc2157713	-37.366283
8	0xc1073ab0	-8.451828
9	0xc0db2876	-6.848689
10	0xc09bbc43	-4.866731
11	0xc0aab41c	-5.334486
12	0xc19812bb	-19.009146
13	0xc17421e3	-15.258273
14	0xc0a41253	-5.127237
15	0xc1949a5c	-18.57537
16	0xc04b841f	-3.179939
17	0xc1623a2b	-14.139201
18	0xc0b38312	-5.60975
19	0x3fb32016	1.3994167
20	0xc1809a77	-16.075422
21	0xc02af1d0	-2.671009
22	0xc1562af7	-13.385489
23	0xc1276828	-10.462929
24	0xbf997105	-1.1987616
25	0xc1f67e8d	-30.811792
26	0x4041eab1	3.0299494
27	0xc18db316	-17.712444
28	0xc03151d7	-2.77062
29	0x4095b3d0	4.6782
30	0xc166ff0c	-14.437267
31	0xc12c6e99	-10.777001

norm1.weight f4 [16]
0	0x3f732f1e	0.9499377
1	0x415141e3	13.078586
2	0x415323ef	13.196273
3	0x415a44fb	13.641841
4	0x4139c314	11.6101265
5	0x4192a358	18.329758
6	0x415fd023	13.988315
7	0x413fb1e1	11.980927
8	0x3f6fff60	0.93749046
9	0x418485a3	16.565252
10	0x415c7719	13.779077
11	0x4189dae8	17.231888
12	0x3f8af9a6	1.0857437
13	0x41ab1c30	21.388763
14	0x41248440	10.282288
15	0x416a84ae	14.6573925

norm1.bias f4 [16]
0	0x3d3a31f5	0.0454578
1	0x400a7a7f	2.1637266
2	0x406e854b	3.7268856
3	0x4057919b	3.368262
4	0x40227d08	2.5388813
5	0xbf981672	-1.188185
6	0x40777496	3.8664908
7	0x3f634818	0.8878188
8	0xc1ab16aa	-21.386066
9	0x3fe70673	1.8048843
10	0x4078a04f	3.8847845
11	0x3fd2cba6	1.6468399
12	0x3a996be2	0.0011705125
13	0x40d6518f	6.697456
14	0x3f799a0f	0.975007
15	0x40495d8e	3.1463351

norm1.running_mean f4 [16]
0	0x00000004	6e-45
1	0x3fd73bb0	1.681509
2	0x408a7cfb	4.3277564
3	0x40bc2736	5.8797865
4	0x4063e752	3.5609937
5	0x413b29ca	11.697702
6	0x4083f029	4.1230664
7	0x40c3496f	6.102714
8	0x00000004	6e-45
9	0x418b14a1	17.385073
10	0x40c4fc3b	6.15579
11	0x41f5c8f6	30.723125
12	0x00000004	6e-45
13	0x42e5fb23	114.9905
14	0x405e50c5	3.4736798
15	0x417ce6ba	15.80633

norm1.running_var f4 [16]
0	0x00000004	6e-45
1	0x426d2311	59.284245
2	0x4346c647	198.77452
3	0x43042a2f	132.16478
4	0x431e04ed	158.01924
5	0x4304b681	132.7129
6	0x430c2621	140.14894
7	0x42b96e9b	92.71603
8	0x00000004	6e-45
9	0x4392c49b	293.53598
10	0x436696c2	230.5889
11	0x44362ab2	728.6671
12	0x00000004	6e-45
13	0x44d5b6eb	1709.7162
14	0x42194ad4	38.323074
15	0x446675f8	921.84326

norm2.weight f4 [32]
0	0x400253c4	2.0363626
1	0x4007032c	2.1095686
2	0x3fe597e8	1.7936983
3	0x3fecba3c	1.8494334
4	0x3ffdf367	1.9839906
5	0x3fe3d3c9	1.7799007
6	0x400865bb	2.1312091
7	0x40199f2f	2.4003408
8	0x401e203c	2.4707174
9	0x3ff1c211	1.8887349
10	0x3fe30613	1.7736229
11	0x3ff04f22	1.877415
12	0x3fef8d90	1.8715076
13	0x400ac330	2.1681633
14	0x400993f4	2.1496553
15	0x400fe412	2.2482953
16	0x4027f2cb	2.624194
17	0x400291ff	2.040161
18	0x401aed9a	2.420752
19	0x402753cb	2.6144893
20	0x3ff7d85c	1.9362903
21	0x3fc2625c	1.5186267
22	0x40147dee	2.3201861
23	0x3ffa68d1	1.9563237
24	0x402032d7	2.503103
25	0x40010bb1	2.0163386
26	0x4021de0b	2.5291774
27	0x400d632d	2.2091782
28	0x40066475	2.0998814
29	0x401b7e8c	2.4295988
30	0x3fb2496f	1.392866
31	0x3ff39312	1.9029257

norm2.bias f4 [32]
0	0x413f2659	11.946862
1	0xc05db712	-3.4642987
2	0x40bd1467	5.9087405
3	0x3f8566f2	1.0422041
4	0x409b54c8	4.8540993
5	0xc1184b37	-9.518363
6	0x40cc7ba4	6.390093
7	0xc0d70d6d	-6.720389
8	0x41000cce	8.003126
9	0x40e0084a	7.001012
10	0x4089080c	4.2822323
11	0xbe483d11	-0.19554545
12	0xc091bdcd	-4.554419
13	0xc02d631a	-2.7091737
14	0xc02a3f1f	-2.6601026
15	0x403f60d9	2.990286
16	0xbff882ff	-1.9414977
17	0xc0b2e91b	-5.5909553
18	0xc1173b7f	-9.452025
19	0x40ee81b8	7.453335
20	0xc0423d4d	-3.0349915
21	0x40d34b89	6.6029706
22	0x41586bd8	13.526329
23	0x40016dbe	2.0223231
24	0xc0d1c9f1	-6.555901
25	0x40b85a4f	5.761024
26	0xc195ac99	-18.709276
27	0x416de148	14.8675
28	0xc0bfd715	-5.995005
29	0xc09d2681	-4.91095
30	0xc0a7a484	-5.2388325
31	0xc0cce63b	-6.4031043

norm2.running_mean f4 [32]
0	0x43be1114	380.13342
1	0x424bc4e3	50.942272
2	0x42830d89	65.526436
3	0x41a90e5c	21.132011
4	0x440eceb4	571.22974
5	0x4145b845	12.357488
6	0x4312be64	146.74371
7	0x4298c5e2	76.38649
8	0x437c0011	252.00026
9	0x438f6510	286.78955
10	0x437812ea	248.07388
11	0x41e8ce71	29.100801
12	0x425ab63d	54.677967
13	0x4295400d	74.6251
14	0x43b61111	364.13333
15	0x4301865b	129.52483
16	0x442e89b1	698.1514
17	0x42832c12	65.586075
18	0x43479d0b	199.61345
19	0x43c2561b	388.6727
20	0x42a1cfc0	80.90576
21	0x425582f3	53.37788
22	0x41bf3408	23.900406
23	0x43a170d1	322.88138
24	0x4405f634	535.8469
25	0x41ac1c17	21.513716
26	0x44a3055e	1304.1677
27	0x43be0ccd	380.1
28	0x44016895	517.6341
29	0x43b455ee	360.67133
30	0x4292d85b	73.42257
31	0x431049db	144.2885

norm2.running_var f4 [32]
0	0x495fabf6	916159.4
1	0x47f8f912	127474.14
2	0x47c1c202	99204.016
3	0x470b567d	35670.49
4	0x498d81f3	1.1592304e+06
5	0x4687ae5e	17367.184
6	0x48d950ff	445063.97
7	0x487bbe75	257785.83
8	0x490988c1	563340.06
9	0x4911e7ff	597631.94
10	0x48b6d07a	374403.8
11	0x478a6012	70848.14
12	0x4806033c	137228.94
13	0x47d03d12	106618.14
14	0x497bf415	1.0320013e+06
15	0x4858231d	221324.45
16	0x4a0c4cc9	2.2986742e+06
17	0x482177d2	165343.28
18	0x490eadd5	584413.3
19	0x49b6eb49	1.4984731e+06
20	0x480e1ca6	145522.6
21	0x47aa35c9	87147.57
22	0x4772a60e	62118.055
23	0x48cfc965	425547.16
24	0x49ceccfa	1.6941112e+06
25	0x472312c2	41746.758
26	0x4a34495c	2.953815e+06
27	0x49264d5e	681173.9
28	0x4960f6c4	921452.25
29	0x4937a877	752263.44
30	0x47bef65e	97772.734
31	0x489b2ba9	317789.28

map.weight f4 [2, 32]
0	0xc056a97d	-3.3540947
1	0xbf0fd8a4	-0.5618994
2	0xbf3f7702	-0.74790967
3	0xc05366b0	-3.3031425
4	0x407b8543	3.9300086
5	0xc04626ea	-3.0961251
6	0x40612082	3.5176091
7	0x3ee97eda	0.45604593
8	0xc081d44c	-4.057165
9	0xc00f210b	-2.2363918
10	0xbfa9784b	-1.3239836
11	0x3fbe1ded	1.4852883
12	0xbfcaf860	-1.5857048
13	0xbfa3b0f2	-1.2788374
14	0x40829cf7	4.0816607
15	0x3fac650e	1.346834
16	0x40a9bf57	5.304607
17	0x407c794c	3.9449034
18	0xbf6f2850	-0.93420887
19	0x400f08dd	2.234916
20	0x3f46c96d	0.776511
21	0xc043656c	-3.0530653
22	0xc085bf77	-4.179622
23	0x3fbdd885	1.4831702
24	0x3ef7a747	0.4836981
25	0x40540d47	3.3133104
26	0x40a67792	5.202096
27	0x402f5932	2.739819
28	0x40532572	3.2991605
29	0xc077da0a	-3.872683
30	0x3fc9e9c9	1.577447
31	0xbf1e7e38	-0.61911345
32	0x4021a998	2.5259762
33	0x40820992	4.0636683
34	0xc07612e7	-3.8449037
35	0xbf8ca63b	-1.098823
36	0xbf8a8af7	-1.0823659
37	0xbf3c0301	-0.73442084
38	0xc014594a	-2.3179498
39	0x40928988	4.5792885
40	0xc0110569	-2.2659552
41	0xc044d623	-3.0755699
42	0xc051ff01	-3.2811892
43	0x405afad8	3.4215603
44	0x4062244e	3.5334659
45	0x4079c843	3.902848
46	0xbfae4712	-1.3615439
47	0xc07edf77	-3.9823892
48	0x3fada07b	1.35646
49	0x3fd3b709	1.6540233
50	0x40954db9	4.6657376
51	0xc09964e0	-4.793564
52	0xc064fa0a	-3.5777612
53	0xbf802e30	-1.0014095
54	0xbf7b19f7	-0.98086494
55	0xc06f1ef1	-3.7362635
56	0xc09d4b8c	-4.915472
57	0x400495c1	2.0716403
58	0xbe38ad4a	-0.18034855
59	0x405692f3	3.352719
60	0x402820b3	2.6269958
61	0x401bf2ad	2.4366868
62	0xc0146398	-2.3185787
63	0xc07d6793	-3.9594467
