data/model_0.pth (torch, 59640 bytes, 13 tensors)

conv1.weight f4 [16, 1, 7, 7]
0	0xbdc9b5b3	-0.098491095
1	0xbdaf83ba	-0.08570047
2	0x3d5161a5	0.05111851
3	0x3dc63b2a	0.096792534
4	0xbd05a2a5	-0.032625813
5	0xbd7e0961	-0.062020663
6	0xbcde3865	-0.0271265
7	0xbd896663	-0.06708982
8	0xbd46d63c	-0.048544154
9	0xbde6d3a1	-0.11270834
10	0x3df7f7c3	0.12107804
11	0xbd664da1	-0.056226376
12	0x3b866cdc	0.0041023325
13	0x3d70d8c1	0.058800463
14	0xbdf25755	-0.118330635
15	0x3de6d228	0.11270553
16	0x3ba8b46e	0.005148462
17	0x3dfbf453	0.123024605
18	0xbe0aaa98	-0.13541639
19	0x3df67e1c	0.12035772
20	0xbe0374c2	-0.12837508
21	0xbce36681	-0.027758839
22	0x3d8b5007	0.068023734
23	0xbdbcb0d3	-0.09213414
24	0xbd64e46e	-0.05588191
25	0x3d840df0	0.06447971
26	0xbe09dab2	-0.13462332
27	0x3d8d6fca	0.06906088
28	0xbd74968a	-0.059713878
29	0xbd63d461	-0.055622462
30	0xbdfd11be	-0.123569
31	0xbd8fde5a	-0.07024832
32	0xbe0fd236	-0.14045033
33	0x3d760a18	0.06006822
34	0xbbdc77dc	-0.0067281555
35	0xbc6ef293	-0.014584201
36	0x3db95b6e	0.09050642
37	0x3d54a9f3	0.05191989
38	0xbd817c35	-0.06322519
39	0x3ac2264a	0.0014812436
40	0x3e0bda37	0.13657461
41	0xbcd1de25	-0.025618622
42	0xbda2a57e	-0.079417214
43	0xbd3f24d3	-0.046665978
44	0x3d157dc0	0.036496878
45	0xbdfdb9f1	-0.12388981
46	0xbdac8723	-0.08424213
47	0xbbdcf301	-0.0067428355
48	0x3d2ab23c	0.041673884
49	0xbe089d26	-0.13341197
50	0xbe11c636	-0.14235768
51	0xbd3abfb7	-0.04559299
52	0x3deff51e	0.11716674
53	0x3decd6ac	0.11564383
54	0x3da2f260	0.079563856
55	0x3dfd5b7e	0.123709664
56	0xbc89afca	-0.016807456
57	0xbcab7081	-0.02092767
58	0x39770001	0.00023555757
59	0xbd144bf3	-0.036205243
60	0x3d1285dc	0.03577219
61	0xbdedf28c	-0.11618528
62	0xbdd3fd81	-0.103510864
63	0x3d08f8aa	0.03344027
64	0x3ca75e80	0.020430803
65	0xbc9bbf53	-0.019012129
66	0x3c579901	0.013159038
67	0xbdc85af7	-0.09782975
68	0xbd96c9ec	-0.07362732
69	0xbd19d74a	-0.03755883
70	0xbc2beda5	-0.010493671
71	0x3c3c6b81	0.01150024
72	0xbe09e23f	-0.13465212
73	0x3db69cfc	0.08916661
74	0xbdc3a821	-0.095535524
75	0xbc9de177	-0.01927255
76	0x3d9ee9b5	0.0775942
77	0x3d7e9cae	0.06216114
78	0xbd4acd13	-0.04951198
79	0xbddac5d1	-0.10682262
80	0xbdf549c3	-0.119769596
81	0x3df899cc	0.121387094
82	0xbe03ee5f	-0.128839
83	0x3d9a81fa	0.07544322
84	0x3da73137	0.08163684
85	0x3d8d4213	0.06897368
86	0x3de3b9b8	0.111194074
87	0xbddf698e	-0.10908805
88	0xbb91b993	-0.004447171
89	0xbd13934a	-0.036029138
90	0x3ccf0cf7	0.025274737
91	0x3ded3a2c	0.11583361
92	0x3d9f3cc0	0.07775259
93	0x3b55ac4a	0.0032603913
94	0x3e0c29ee	0.1368787
95	0x3e0e9770	0.13924956
96	0x3d632438	0.055454463
97	0xbc919a37	-0.01777373
98	0xbda89033	-0.08230629
99	0x3d9d1485	0.076699294
100	0xbd8982d7	-0.06714409
101	0xbe0e025b	-0.13868086
102	0x3db6f333	0.08933105
103	0xbd2cb76a	-0.042167105
104	0xbcaeb665	-0.021327207
105	0x3d897d00	0.06713295
106	0xbdc85921	-0.09782625
107	0x3d46d117	0.048539247
108	0xbb987a25	-0.0046532326
109	0xbdbe4581	-0.092906006
110	0xbccd2ce5	-0.025045821
111	0x3d6a1ac1	0.05715442
112	0xbb98404a	-0.0046463357
113	0x3dc1da05	0.09465412
114	0xbd950d2c	-0.07277903
115	0x3df6f85e	0.12059091
116	0x3d43727c	0.047716603
117	0x3dd03343	0.101660274
118	0x3df8eb01	0.121541984
119	0xbdecd9ea	-0.11565001
120	0x3c525613	0.0128379045
121	0xbe0a7914	-0.1352275
122	0x3bf94193	0.007606694
123	0xbdc03ffc	-0.09387204
124	0xbdfc70e3	-0.12326219
125	0x3c89ba00	0.016812325
126	0x3ddbc198	0.107302845
127	0xbdbba525	-0.09162358
128	0xbdb705e3	-0.0893667
129	0x3db7f425	0.08982114
130	0x3d97b79a	0.07408066
131	0xbda9265c	-0.082592696
132	0xbd0d7eea	-0.034544863
133	0x3e0d9e7a	0.13829985
134	0xbdf9d3f1	-0.12198628
135	0x3d995ab5	0.07488004
136	0xbda06373	-0.078314684
137	0x3d81ba00	0.06334305
138	0x3d178840	0.036995173
139	0xbd03f8d3	-0.03221972
140	0x3ce68fca	0.028144736
141	0xbd92c617	-0.07166689
142	0x3de34df3	0.11098852
143	0x3e0bf70b	0.13668458
144	0x3df0c295	0.117558636
145	0x3c88428a	0.01663329
146	0x3d6d7bee	0.057979517
147	0xbdd76afe	-0.10518454
148	0xbd3e3a61	-0.046442393
149	0xbbce2c6e	-0.0062919175
150	0x3c1b426e	0.009476287
151	0xbd55cb13	-0.05219562
152	0xbdc1c283	-0.09460928
153	0xbe0ae53d	-0.1356401
154	0x3bf0e2dc	0.0073512625
155	0xbd904753	-0.07044854
156	0x3d267d60	0.04064691
157	0x3dbb22a1	0.09137464
158	0xbdd58897	-0.10426443
159	0xbdac055e	-0.08399461
160	0x3cdf5893	0.027263915
161	0x3dad6727	0.084669404
162	0x3dc7f37a	0.09763236
163	0xbc83bd5c	-0.016081505
164	0x3d47b665	0.04875793
165	0xbd3a5d13	-0.04549892
166	0xbdab7b47	-0.08373123
167	0x3d658ae5	0.056040663
168	0xbdea266e	-0.11433111
169	0xbc427325	-0.011868273
170	0xbdbe6823	-0.09297206
171	0x3d603813	0.054740977
172	0x3ca9722e	0.020684328
173	0xbd6a8d21	-0.057263497
174	0x3d98108a	0.074250296
175	0x3dc3d28e	0.095616445
176	0xbdacc95a	-0.08436842
177	0x3daf2e0a	0.08553703
178	0x3e0bfffa	0.13671866
179	0x3c3d9e6e	0.011573417
180	0xbd0c440a	-0.034244575
181	0xbda204cc	-0.07911071
182	0x3cdd3eee	0.027007546
183	0xbd8c4f73	-0.06851091
184	0x3c985a2e	0.018597689
185	0x3da11475	0.0786523
186	0x3ddb7855	0.10716311
187	0xbe054e9b	-0.13018267
188	0x3daae2f3	0.083440684
189	0xbd860f4e	-0.06545888
190	0x3d82c90c	0.06386003
191	0x3cd79fca	0.02632131
192	0xbde9378c	-0.11387548
193	0xbc6cf0a5	-0.014461671
194	0x3d80d217	0.062900715
195	0x3de2970a	0.11063965
196	0xbd85ab65	-0.065268315
197	0x3dcf2177	0.10113805
198	0x3dae3391	0.08505929
199	0x3d9107d5	0.07081572
200	0xbdc2e62c	-0.09516558
201	0xbdb85b7a	-0.09001823
202	0xbca6be1c	-0.020354323
203	0xbdebbfb3	-0.11511173
204	0xbd5ff833	-0.05468006
205	0xbe0169d7	-0.12638031
206	0xbde03471	-0.109475024
207	0x3d8fb3ba	0.07016702
208	0xbde6efd3	-0.112762116
209	0xbd6560f8	-0.05600068
210	0x3bbf31b7	0.005834784
211	0x3dfcde1e	0.12347053
212	0xbe08a453	-0.13343935
213	0x3e0813a6	0.13288745
214	0x3ddc0735	0.10743562
215	0x3d316f5c	0.04331909
216	0xbdb82075	-0.08990566
217	0x3caeec65	0.021352956
218	0x3d0fe877	0.035133805
219	0xbd5b620a	-0.053560294
220	0xbe11500c	-0.14190692
221	0x3d3c632e	0.045993023
222	0xbd740e25	-0.0595838
223	0x3df8273e	0.1211686
224	0x3e11c808	0.14236462
225	0x3e0df74b	0.13863866
226	0xbd7fb5c5	-0.06242921
227	0xbdd8a85c	-0.10578987
228	0x3e0a3b4c	0.13499182
229	0x3d61c141	0.055115942
230	0x3d1025e5	0.03519239
231	0x3ded4601	0.11585618
232	0xbd495801	-0.049156193
233	0x3dc1684e	0.09443723
234	0xbdeff40c	-0.1171647
235	0xbdab196c	-0.08354458
236	0xbda82437	-0.082100324
237	0x3dc8f63e	0.09812592
238	0x3cde0f81	0.027107002
239	0x3d67079c	0.05640374
240	0x3df571bc	0.11984584
241	0x3d53ee97	0.05174121
242	0x3d4a4641	0.049383406
243	0x3e0d1cea	0.13780561
244	0x3cbd7213	0.023125684
245	0xbe100fc5	-0.14068516
246	0xbd801fe7	-0.06256085
247	0x3d23b837	0.039970603
248	0xbdf349a1	-0.11879278
249	0xbcda96e5	-0.02668328
250	0xbe04c7b8	-0.12966812
251	0xbdcb3213	-0.0992166
252	0xbd4561aa	-0.048188843
253	0xbd9c7357	-0.07639187
254	0x3d66835c	0.056277618
255	0x3d8fc5e5	0.07020167

conv1.bias f4 [16]
0	0xbe0e011b	-0.13867609
1	0xbdfd57bc	-0.1237025
2	0xbdbd5965	-0.09245566
3	0xbd1fb41c	-0.038990125
4	0x3dfc6c25	0.123253144
5	0x3cbb91c1	0.02289665
6	0x3c38bab7	0.011274985
7	0x3dc38d81	0.09548474
8	0xbdfc59da	-0.12321825
9	0x3d4fff53	0.050780606
10	0x3e093e57	0.13402687
11	0xbd480c85	-0.048840065
12	0xbd88b087	-0.06674295
13	0x3de80835	0.1132969
14	0x3dbbea87	0.09175592
15	0x3c16c600	0.00920248

conv2.weight f4 [32, 16, 5, 5]
0	0xbcd7a3aa	-0.026323158
1	0x3d205bf3	0.03915019
2	0x3c1a8993	0.009432214
3	0xbd003ae2	-0.031306155
4	0xbd0d752b	-0.03453557
5	0xb9c57667	-0.00037662985
6	0xbaadbe9a	-0.0013255656
7	0xbd39a382	-0.04532195
8	0x3ca3fdad	0.020018423
9	0xbd1f0edd	-0.038832534
10	0x3c436ecd	0.011928272
11	0xbccdcd37	-0.025122268
12	0xbb836d8d	-0.004010862
13	0xbd28e5b7	-0.0412347
14	0x3d34ad20	0.044110417
15	0x3c99d430	0.018777937
16	0x3d071e07	0.03298762
17	0xbce3d0f3	-0.027809596
18	0x3cda2ae3	0.026631778
19	0xbb001867	-0.0019545795
20	0x3cce7647	0.025202883
21	0xbc2cd640	-0.010549128
22	0x3c87b61d	0.01656633
23	0xbd4147e3	-0.047187697
24	0xbc7ec073	-0.015548813
25	0x3ca9a370	0.020707816
26	0xbd0a6935	-0.03379174
27	0x3d3d5e32	0.04623241
28	0x3c8ceefd	0.017203802
29	0xbd272aef	-0.04081243
30	0xbcac8c8a	-0.021063108
31	0x3cbf1853	0.023327028
32	0xbc4389ba	-0.011934692
33	0x3ce55f13	0.027999436
34	0x3cf63a53	0.030057108
35	0xbccc2120	-0.024918139
36	0xbbc72333	-0.006077194
37	0xbd1aaa57	-0.037760105
38	0xbd356aa7	-0.044291165
39	0x3b99efa7	0.0046977582
40	0x3bf0f40d	0.007353312
41	0xbce4d603	-0.02793408
42	0x3b741167	0.0037241818
43	0xbc5e9a00	-0.013586521
44	0x3ca6bced	0.020353759
45	0xbac5dd33	-0.001509583
46	0x3b859ccd	0.00407753
47	0xbc004cfa	-0.007830853
48	0x3c934530	0.017977327
49	0x3b9d7a0d	0.0048058094
50	0xbd199ed0	-0.03750497
51	0x3c24d5d3	0.010060745
52	0x3d25d292	0.04048402
53	0xbc9dca23	-0.019261425
54	0x3d1ee445	0.038791914
55	0x3d1d0080	0.038330555
56	0xbbb45c27	-0.0055041495
57	0xbd38babb	-0.045099955
58	0x3c04e0cd	0.008110237
59	0xbc49bbf3	-0.012312877
60	0xbd199cdb	-0.037503105
61	0x3c044300	0.008072615
62	0xbcfb35e3	-0.030665344
63	0x3ae58900	0.0017512143
64	0x3ce1a083	0.027542358
65	0xbc619d4d	-0.013770414
66	0xbd0de86b	-0.03464548
67	0xbd14bde2	-0.0363139
68	0xbc6bd333	-0.014393616
69	0xbce3e30d	-0.027818227
70	0x3d2cb28a	0.042162456
71	0xbc95d320	-0.018289149
72	0xbc0367a0	-0.008020312
73	0xbd05e17a	-0.032685734
74	0xbc598ed3	-0.013278681
75	0x3d0e2eab	0.034712475
76	0xbc41aa1a	-0.0118203405
77	0x3cbc60f0	0.022995442
78	0x3a8bf767	0.001067859
79	0x3c050f40	0.008121312
80	0x3c1a02f3	0.009400117
81	0xbd4c5380	-0.04988432
82	0x3c079cb3	0.008277106
83	0xbd0baf1d	-0.034102548
84	0x3d298512	0.04138667
85	0xbc80b353	-0.015710508
86	0x3ce1ca93	0.027562415
87	0xbc26e1a7	-0.010185636
88	0xbd253423	-0.040332925
89	0xbc3f68f3	-0.011682737
90	0xbc7f6b7a	-0.015589589
91	0xbcbcf8da	-0.02306788
92	0xbd2fd675	-0.04292913
93	0x3cce39ba	0.02517401
94	0xbae3ab67	-0.0017369807
95	0x3d2af235	0.041734893
96	0x3d4bfa05	0.049798984
97	0x3d4a6120	0.049409032
98	0xbceaef97	-0.028678698
99	0x3cc0a013	0.02351383
100	0x3c9312ed	0.01795336
101	0x3d3699bd	0.04458021
102	0xbcc4953d	-0.023996944
103	0x3d2d0b4b	0.042247098
104	0xbd06b893	-0.032890867
105	0x3cb322d7	0.021867199
106	0x3d35a945	0.04435088
107	0x3b559f80	0.003259629
108	0xbd1ff797	-0.03905448
109	0x3ca0a0c0	0.019607902
110	0x3d45f23b	0.048326712
111	0x3c742280	0.014900804
112	0x3d3768d0	0.04477769
113	0xbd17e747	-0.037085798
114	0x3c694607	0.014237887
115	0x39f46a67	0.00046618583
116	0xbd31589d	-0.0432974
117	0x3d040bc7	0.032237794
118	0xbc662ffa	-0.014049524
119	0x3b2a65cd	0.002600062
120	0x3cf060d0	0.029343039
121	0x3c970677	0.0184357
122	0xbd4bca58	-0.049753517
123	0x3d12225a	0.03567729
124	0xbcd0a787	-0.025470508
125	0x3c7fe987	0.015619642
126	0x3b4439e7	0.002994174
127	0xbca229c7	-0.019795312
128	0xb924cccd	-0.00015716553
129	0xbcaacf47	-0.02085079
130	0xbcee5fed	-0.029098475
131	0x3d125be8	0.03573218
132	0xbceb5de0	-0.028731287
133	0x3d23470d	0.03986268
134	0x3d42e9a3	0.047586095
135	0x3d3a71b7	0.045518603
136	0x3c35e887	0.011102802
137	0xbcacc687	-0.021090759
138	0x3d28a358	0.0411714
139	0xbd26c568	-0.040715605
140	0xbcd14a03	-0.025547987
141	0xbc4bb0b3	-0.012432265
142	0xbd095e82	-0.033537395
143	0xbc974b03	-0.018468386
144	0xbb3804b3	-0.0028078973
145	0xbcc04880	-0.02347207
146	0x3c15da67	0.009146309
147	0x3d45a19b	0.048249822
148	0xbd25d96b	-0.04049055
149	0xbd1931a5	-0.03740086
150	0x3d1e9228	0.038713604
151	0xbcb51e80	-0.02210927
152	0x3cd4719a	0.025933076
153	0x3b27f69a	0.0025629164
154	0xbd41f4f0	-0.04735273
155	0x3c89931a	0.016793776
156	0xbd2d925a	-0.0423759
157	0x3d1a0e63	0.037611376
158	0x3ca9b350	0.020715386
159	0xbbd4bd73	-0.0064923107
160	0x3d41ecca	0.04734496
161	0x3d2fe8bd	0.042946566
162	0xbca02043	-0.019546634
163	0xbc4ac3d3	-0.01237579
164	0xbb8027c0	-0.0039109886
165	0x3d059275	0.032610375
166	0x3d44361d	0.04790317
167	0x3c58aea0	0.013225228
168	0x3c439487	0.011937267
169	0xba974c67	-0.0011543155
170	0x3c83f3d0	0.01610747
171	0xbd10db20	-0.035365224
172	0x3ca48f33	0.020087814
173	0x3cc6e087	0.024276985
174	0x3d44beeb	0.048033636
175	0xbcfdda20	-0.0309878
176	0x3d02a472	0.03189511
177	0xbd46b680	-0.04851389
178	0xbb5393b3	-0.003228408
179	0xbcd738dd	-0.026272232
180	0xbc82e480	-0.015978098
181	0xbbb16a1a	-0.0054142596
182	0x3ce717d0	0.028209597
183	0xbcf8847a	-0.030336607
184	0xbb142f4d	-0.0022611201
185	0xbbecd7f3	-0.0072278916
186	0x3cfdd89d	0.030987078
187	0x3b983d5a	0.0046459856
188	0x3b59701a	0.003317839
189	0x3d063ced	0.032772947
190	0xbbf0a14d	-0.0073434473
191	0x3d3a244a	0.045444764
192	0x3d031675	0.03200384
193	0xbd00886b	-0.0313801
194	0x3ca8a0c0	0.020584464
195	0xbc265c1a	-0.010153795
196	0x3b84911a	0.0040456178
197	0xbc1f8bed	-0.009737951
198	0xbc39f400	-0.011349678
199	0x3bdfc38d	0.0068287314
200	0x3d27fe75	0.041014154
201	0xbd24de30	-0.040250957
202	0x3d0b2205	0.03396799
203	0xbd1ef140	-0.038804293
204	0x3c708640	0.014680445
205	0xbd124aaf	-0.035715755
206	0x3d2e9af3	0.04262824
207	0x3cff6267	0.031174852
208	0xbd499978	-0.049218625
209	0xbd2214cd	-0.03957062
210	0x3c8deb10	0.017324
211	0xbd2b0dd2	-0.041761227
212	0xbd190b08	-0.037364036
213	0xbd400c8b	-0.046886962
214	0xbc56ff07	-0.013122327
215	0x3c9c0b1d	0.019048268
216	0xbc89ac30	-0.016805738
217	0x3cc60613	0.024172818
218	0xbc5433ba	-0.012951786
219	0xbacf7a67	-0.0015829325
220	0x3a8c3b33	0.0010698795
221	0xbc8e2f17	-0.017356439
222	0xbc86941d	-0.016428048
223	0xbca99fcd	-0.020706082
224	0x3cb3ba2a	0.021939356
225	0x3cd20ab3	0.025639867
226	0x3ce687e0	0.028140962
227	0x3cf730e3	0.030174678
228	0xbd12908f	-0.035782393
229	0xbcf09aca	-0.029370684
230	0xbcd6159a	-0.026133347
231	0x3caf8f50	0.021430641
232	0xbd46c3af	-0.048526462
233	0x3d1e43a8	0.03863874
234	0x3b5382e7	0.0032274069
235	0xbc00c9e0	-0.007860631
236	0xbca52b53	-0.02016226
237	0x3c0213c7	0.007939286
238	0x3c81ac8d	0.015829349
239	0x3c3a3c87	0.01136697
240	0xbc88b67d	-0.01668858
241	0xbd483dad	-0.048886944
242	0x3d268878	0.04065749
243	0x3cc9ab73	0.024617886
244	0xbc9ec307	-0.019380106
245	0xbbbc6900	-0.0057498217
246	0x3c9736b0	0.018458694
247	0x3c0b6893	0.008508819
248	0x3cfa17fa	0.030529011
249	0x3d3a3ebb	0.04546998
250	0x3d34c763	0.044135462
251	0xbc51847a	-0.0127879325
252	0xbcd07733	-0.025447464
253	0xbc08775a	-0.008329237
254	0xbc9e65bd	-0.019335622
255	0x3d308cbb	0.04310296

conv2.bias f4 [32]
0	0xbd19a3df	-0.037509795
1	0x3c2f8ac0	0.010714233
2	0x3cc00147	0.02343811
3	0xbd45edb2	-0.048322387
4	0xbd376015	-0.044769365
5	0x3c454b07	0.012041814
6	0xbd1c9783	-0.03823043
7	0xbc8d7a83	-0.017270332
8	0x3d148fcd	0.03626995
9	0xbb4bf71a	-0.0031122626
10	0x3d2865cd	0.04111271
11	0xbccca04a	-0.024978776
12	0xbc89349a	-0.016748715
13	0x3c0bd040	0.008533537
14	0x3c9e3507	0.019312395
15	0xbbd0ed27	-0.006375927
16	0x3cbac003	0.022796636
17	0xbcf52dea	-0.02992912
18	0x3c0d87fa	0.008638376
19	0x3d164a0f	0.03669172
20	0x3c8e9933	0.017407035
21	0x3c3460e0	0.011009425
22	0xbc2519d3	-0.010076958
23	0x3ceaf99a	0.028683472
24	0x3d328f05	0.043593425
25	0x3bedb4c0	0.007254213
26	0x3ca1714d	0.019707346
27	0xbd31487b	-0.043282013
28	0xbd3b50c2	-0.045731314
29	0xbc29a66d	-0.01035462
30	0x3d0043bd	0.0313146
31	0x3c99a89d	0.018757159

norm1.weight f4 [16]
0	0x3f800000	1.0
1	0x3f800000	1.0
2	0x3f800000	1.0
3	0x3f800000	1.0
4	0x3f800000	1.0
5	0x3f800000	1.0
6	0x3f800000	1.0
7	0x3f800000	1.0
8	0x3f800000	1.0
9	0x3f800000	1.0
10	0x3f800000	1.0
11	0x3f800000	1.0
12	0x3f800000	1.0
13	0x3f800000	1.0
14	0x3f800000	1.0
15	0x3f800000	1.0

norm1.bias f4 [16]
0	0x00000000	0.0
1	0x00000000	0.0
2	0x00000000	0.0
3	0x00000000	0.0
4	0x00000000	0.0
5	0x00000000	0.0
6	0x00000000	0.0
7	0x00000000	0.0
8	0x00000000	0.0
9	0x00000000	0.0
10	0x00000000	0.0
11	0x00000000	0.0
12	0x00000000	0.0
13	0x00000000	0.0
14	0x00000000	0.0
15	0x00000000	0.0

norm1.running_mean f4 [16]
0	0x00000000	0.0
1	0x00000000	0.0
2	0x00000000	0.0
3	0x00000000	0.0
4	0x00000000	0.0
5	0x00000000	0.0
6	0x00000000	0.0
7	0x00000000	0.0
8	0x00000000	0.0
9	0x00000000	0.0
10	0x00000000	0.0
11	0x00000000	0.0
12	0x00000000	0.0
13	0x00000000	0.0
14	0x00000000	0.0
15	0x00000000	0.0

norm1.running_var f4 [16]
0	0x3f800000	1.0
1	0x3f800000	1.0
2	0x3f800000	1.0
3	0x3f800000	1.0
4	0x3f800000	1.0
5	0x3f800000	1.0
6	0x3f800000	1.0
7	0x3f800000	1.0
8	0x3f800000	1.0
9	0x3f800000	1.0
10	0x3f800000	1.0
11	0x3f800000	1.0
12	0x3f800000	1.0
13	0x3f800000	1.0
14	0x3f800000	1.0
15	0x3f800000	1.0

norm2.weight f4 [32]
0	0x3f800000	1.0
1	0x3f800000	1.0
2	0x3f800000	1.0
3	0x3f800000	1.0
4	0x3f800000	1.0
5	0x3f800000	1.0
6	0x3f800000	1.0
7	0x3f800000	1.0
8	0x3f800000	1.0
9	0x3f800000	1.0
10	0x3f800000	1.0
11	0x3f800000	1.0
12	0x3f800000	1.0
13	0x3f800000	1.0
14	0x3f800000	1.0
15	0x3f800000	1.0
16	0x3f800000	1.0
17	0x3f800000	1.0
18	0x3f800000	1.0
19	0x3f800000	1.0
20	0x3f800000	1.0
21	0x3f800000	1.0
22	0x3f800000	1.0
23	0x3f800000	1.0
24	0x3f800000	1.0
25	0x3f800000	1.0
26	0x3f800000	1.0
27	0x3f800000	1.0
28	0x3f800000	1.0
29	0x3f800000	1.0
30	0x3f800000	1.0
31	0x3f800000	1.0

norm2.bias f4 [32]
0	0x00000000	0.0
1	0x00000000	0.0
2	0x00000000	0.0
3	0x00000000	0.0
4	0x00000000	0.0
5	0x00000000	0.0
6	0x00000000	0.0
7	0x00000000	0.0
8	0x00000000	0.0
9	0x00000000	0.0
10	0x00000000	0.0
11	0x00000000	0.0
12	0x00000000	0.0
13	0x00000000	0.0
14	0x00000000	0.0
15	0x00000000	0.0
16	0x00000000	0.0
17	0x00000000	0.0
18	0x00000000	0.0
19	0x00000000	0.0
20	0x00000000	0.0
21	0x00000000	0.0
22	0x00000000	0.0
23	0x00000000	0.0
24	0x00000000	0.0
25	0x00000000	0.0
26	0x00000000	0.0
27	0x00000000	0.0
28	0x00000000	0.0
29	0x00000000	0.0
30	0x00000000	0.0
31	0x00000000	0.0

norm2.running_mean f4 [32]
0	0x00000000	0.0
1	0x00000000	0.0
2	0x00000000	0.0
3	0x00000000	0.0
4	0x00000000	0.0
5	0x00000000	0.0
6	0x00000000	0.0
7	0x00000000	0.0
8	0x00000000	0.0
9	0x00000000	0.0
10	0x00000000	0.0
11	0x00000000	0.0
12	0x00000000	0.0
13	0x00000000	0.0
14	0x00000000	0.0
15	0x00000000	0.0
16	0x00000000	0.0
17	0x00000000	0.0
18	0x00000000	0.0
19	0x00000000	0.0
20	0x00000000	0.0
21	0x00000000	0.0
22	0x00000000	0.0
23	0x00000000	0.0
24	0x00000000	0.0
25	0x00000000	0.0
26	0x00000000	0.0
27	0x00000000	0.0
28	0x00000000	0.0
29	0x00000000	0.0
30	0x00000000	0.0
31	0x00000000	0.0

norm2.running_var f4 [32]
0	0x3f800000	1.0
1	0x3f800000	1.0
2	0x3f800000	1.0
3	0x3f800000	1.0
4	0x3f800000	1.0
5	0x3f800000	1.0
6	0x3f800000	1.0
7	0x3f800000	1.0
8	0x3f800000	1.0
9	0x3f800000	1.0
10	0x3f800000	1.0
11	0x3f800000	1.0
12	0x3f800000	1.0
13	0x3f800000	1.0
14	0x3f800000	1.0
15	0x3f800000	1.0
16	0x3f800000	1.0
17	0x3f800000	1.0
18	0x3f800000	1.0
19	0x3f800000	1.0
20	0x3f800000	1.0
21	0x3f800000	1.0
22	0x3f800000	1.0
23	0x3f800000	1.0
24	0x3f800000	1.0
25	0x3f800000	1.0
26	0x3f800000	1.0
27	0x3f800000	1.0
28	0x3f800000	1.0
29	0x3f800000	1.0
30	0x3f800000	1.0
31	0x3f800000	1.0

map.weight f4 [2, 32]
0	0xbda3fb73	-0.080069445
1	0xbd278f1c	-0.040907964
2	0xbe135513	-0.14387922
3	0xbde065dd	-0.10956929
4	0x3dbb6630	0.0915035
5	0xbd9cbdae	-0.07653366
6	0x3dcfa269	0.10138399
7	0x3d9ccdcf	0.076564424
8	0xbcb738a5	-0.022365877
9	0xbb8df3cf	-0.0043320428
10	0xbbac3d69	-0.005256344
11	0x3e083a06	0.13303384
12	0x3aa686c3	0.0012704957
13	0xbdca372d	-0.09873805
14	0x3d5ba6fd	0.05362605
15	0x3b916428	0.0044369884
16	0x3da62c5f	0.08113932
17	0x3e012324	0.12611061
18	0x3d93f95b	0.07225295
19	0x3d52c992	0.051461764
20	0x3dc5c93b	0.09657522
21	0xbe2fc120	-0.17163515
22	0xbe2d6870	-0.16934371
23	0x3a978fa8	0.0011563199
24	0x3dcb6ec4	0.09933236
25	0x3e08f919	0.13376273
26	0x3def5a62	0.11687161
27	0x3d022668	0.03177491
28	0x3da85549	0.08219392
29	0xbdeae681	-0.114697464
30	0x3df01fb2	0.117247954
31	0x3ca353f9	0.019937502
32	0x3b799083	0.003808052
33	0x3dfd8afa	0.12380023
34	0xbe1b4909	-0.1516458
35	0x3d2313f6	0.039813958
36	0xbe216f07	-0.1576501
37	0x3d038b90	0.03211552
38	0xbe222185	-0.15833099
39	0x3e23b754	0.15987903
40	0xbdb0d392	-0.08634104
41	0xbe1a16fc	-0.1504783
42	0xbe1cfd9a	-0.15331116
43	0x3dcbb257	0.09946125
44	0x3de55a7d	0.111989
45	0x3e0eda8c	0.13950557
46	0xbe0b8516	-0.13624987
47	0xbc0c5325	-0.008564745
48	0xbdd7e9da	-0.105426505
49	0x3de6064e	0.11231671
50	0x3e1c0828	0.15237486
51	0xbdaa68f7	-0.08320802
52	0xbe091536	-0.13386998
53	0xbbb310ac	-0.005464634
54	0xbd253b3d	-0.040339697
55	0xbe106a18	-0.14102972
56	0xbe2aa7da	-0.16665593
57	0x3e1014f1	0.14070489
58	0xbd1996c8	-0.03749731
59	0x3df16c29	0.11788208
60	0x3c668738	0.014070325
61	0x3cb6c3aa	0.022310097
62	0xbe0a20c9	-0.13489069
63	0xbd4a446f	-0.04938167
